…
team_rank_significant_diff: int64
team_rank_significant_advantage_team1: int64
team_rating_quality_significant_diff: int64
team_rating_quality_significant_advantage_team1: int64
mid_tier_tourney_significant_diff: float64
mid_tier_tourney_significant_advantage_team1: float64
overall_tourney_significant_diff: int64
overall_tourney_significant_advantage_team1: int64
h2h_score_significant_diff: int64
h2h_score_significant_advantage_team1: int64

Final feature matrix shape: (40, 278)
Class distribution: [16 16]

Model Architecture:
Model: "functional"

 Layer (type)         Output Shape    Param # 

 input_layer          (None, 278)           0 
 (InputLayer)                                 

 dense (Dense)        (None, 256)      71,424 

 batch_normalization  (None, 256)       1,024 
 (BatchNormalizatio                          

 dropout (Dropout)    (None, 256)           0 

 dense_1 (Dense)      (None, 128)      32,896 

 batch_normalizatio  (None, 128)         512 
 (BatchNormalizatio                          

 dropout_1 (Dropout)  (None, 128)           0 

 dense_2 (Dense)      (None, 96)       12,384 

 batch_normalizatio  (None, 96)          384 
 (BatchNormalizatio                          

 dropout_2 (Dropout)  (None, 96)            0 

 dense_3 (Dense)      (None, 64)        6,208 

 batch_normalizatio  (None, 64)          256 
 (BatchNormalizatio                          

 dropout_3 (Dropout)  (None, 64)            0 

 dense_4 (Dense)      (None, 32)        2,080 

 batch_normalizatio  (None, 32)          128 
 (BatchNormalizatio                          

 dropout_4 (Dropout)  (None, 32)            0 

 dense_5 (Dense)      (None, 1)            33 

 Total params: 127,329 (497.38 KB)
 Trainable params: 126,177 (492.88 KB)
 Non-trainable params: 1,152 (4.50 KB)
Epoch 1/100
1/1  0s 8s/step - accuracy: 0.4062 - loss: 1.5894WARNING:absl:You are saving your model as an HDF5 file via `model.save()` or `keras.saving.save_model(model)`. This file format is considered legacy. We recommend using instead the native Keras format, e.g. `model.save('my_model.keras')` or `keras.saving.save_model(model, 'my_model.keras')`. 
…
